FFNNmodel.pth (torch, 74147 bytes, 7 tensors)

hidden_layers.linear_0.weight f4 [100, 13]
000000 e1 e3 8a 3d 8d 7c 45 3e dd df 60 be 07 f4 61 be
       0.06781746 0.19285794 -0.21960397 -0.22065745
000010 23 d9 a9 bd fd a1 ce 3d 24 92 9a 3c be f7 55 3e
       -0.08293369 0.100894906 0.018868513 0.20895287
000020 90 a1 c9 bc 7f 45 a0 3d 34 a9 ab bd e8 6a 27 bd
       -0.024613172 0.07825755 -0.08381882 -0.040873438
000030 a0 a9 87 be 5f 85 ae be 59 97 6d be ff 55 3d 3d
       -0.264966 -0.3408613 -0.23202266 0.04622459
000040 30 01 14 3e 9a 94 43 3e af f3 27 be ca 33 ee bd
       0.14453578 0.19099656 -0.16401552 -0.11630972
000050 51 ce 1d 3e ea 2a 49 3e 76 69 8a bc 50 3d 4b 3e
       0.15410735 0.19645277 -0.01689599 0.19847608
000060 47 4d 6c bc 65 99 d2 3c f2 ac 90 3e e0 b2 68 be
       -0.014422721 0.02570791 0.28256947 -0.22724485
000070 55 67 59 be 11 92 8b bd 60 be ce bd 04 62 72 3e
       -0.21230824 -0.06814969 -0.10094905 0.23670202
000080 f5 a2 10 be d5 5a 29 be 1e 6b 46 be a5 fe 84 be
       -0.14124663 -0.16538556 -0.193768 -0.25975528
000090 3d c9 25 be 46 2e 71 3e e6 a0 1f 3e d6 58 2e 3e
       -0.16190048 0.23552808 0.15588722 0.17026076
0000a0 64 ba 05 3c 6f 09 42 be 65 1c b8 3c 85 d4 97 be
       0.008162115 -0.18948911 0.022474477 -0.29654327
0000b0 f1 bb 4a be ec 81 28 be bb d3 f2 3d e0 84 26 3e
       -0.19798256 -0.16455811 0.11856791 0.16261625
0000c0 34 e9 fb bd 93 e6 bb bd aa b8 5d 3e 07 91 89 3e
       -0.12300339 -0.09174838 0.21652475 0.2686846
0000d0 c9 5e 72 3e 19 98 ed 3d bc 1d 8b 3e 4d 01 17 be
       0.2366897 0.11601276 0.27171123 -0.1474659
0000e0 6d 28 0e 3d 37 cb 80 be 39 c6 f9 bd 6c ed 2b be
       0.03470652 -0.2515504 -0.12196011 -0.16789788
0000f0 5a 81 00 3e 01 85 9c 3d 62 3b 28 be 4b ba 63 3c
       0.12549344 0.07642556 -0.16428903 0.013899396
000100 6a 38 23 3e 79 37 16 be a8 dd 9a bd c2 21 95 3d
       0.15939489 -0.14669599 -0.07561809 0.072818294
000110 e1 a2 3f 3e 0f 41 8e 3e 2f 88 5f be 5f 77 d1 bd
       0.18714477 0.2778401 -0.21829294 -0.10227846
000120 57 37 04 3e 34 66 29 3e eb fb 81 3e 2e 69 51 3e
       0.12911735 0.16542894 0.2538751 0.20450279
000130 71 8c 24 3d 24 97 62 be 96 d6 82 3d a6 b5 10 be
       0.040172998 -0.22127968 0.06388585 -0.14131793
000140 43 9d 92 be a8 1d 86 3e 3d dd 66 3e 0d ed 87 be
       -0.28635606 0.261945 0.22545333 -0.26548043
000150 76 19 a1 3d 12 44 c3 bd 7f f0 c3 bc 25 86 19 be
       0.078661844 -0.09534468 -0.023918388 -0.14992578
000160 36 a0 d7 3d d2 37 28 be 7b 71 e3 3d d8 9f 0f 3e
       0.10528605 -0.16427544 0.11105629 0.1402582
000170 ec 4f 4b 3e ec 62 d4 3d ae 8b 8c be f0 3b 38 be
       0.19854707 0.1037043 -0.27450317 -0.17991614
000180 08 cf 0d 3e 90 c5 6d 3d 87 8c 5d be 56 89 23 be
       0.13848507 0.05804974 -0.21635638 -0.15970358
000190 e7 96 85 3e 60 5e 3f 3e fe aa f7 bd d2 f5 8e bd
       0.26091692 0.18688345 -0.12093161 -0.0698048
0001a0 a3 45 87 be 40 5a a3 bb a6 df 55 be 00 12 5b be
       -0.26420316 -0.004985124 -0.20886096 -0.21393585
0001b0 e0 60 7a bc 98 91 2a 3d 58 9e e8 bd ea 85 28 3e
       -0.015281886 0.041642755 -0.11358327 0.16457334
0001c0 3e d4 2c be 79 d9 80 3e 2e a1 42 3e 72 7f 6f be
       -0.16877839 0.25165918 0.19006798 -0.2338846
0001d0 9a 5e 8d bd 10 5c 88 3c b9 33 25 3d 7e a8 87 3d
       -0.069028094 0.016645461 0.04033253 0.06623934
0001e0 f5 51 09 3e b4 02 02 3c 23 8f 32 be b9 b7 39 3e
       0.1341017 0.007935215 -0.17437415 0.18136491
0001f0 e6 e3 95 be 22 55 28 be 57 54 d5 bd 09 62 07 be
       -0.29275435 -0.16438726 -0.10416477 -0.13220991
000200 54 ca 33 be fb a6 5a be 41 49 f8 bd 81 b6 fa 3c
       -0.17557651 -0.2135276 -0.12123347 0.030604603
000210 3b 28 68 be 50 ba 0b bd be 2f 5c 3e 7d b6 16 bd
       -0.22671597 -0.03411323 0.21502587 -0.036795128
000220 8f fb d1 3b 66 ec 16 bd 6b d0 ae 3d 0f 6c 3d 3e
       0.006408162 -0.03684654 0.08535846 0.18498252
000230 ec 5a 80 3e 51 00 22 3e df f3 71 3e c2 25 1a bd
       0.25069368 0.15820433 0.23628186 -0.037633665
000240 b9 48 96 be e2 20 5c be c9 00 7f 3e 7b 12 b0 bd
       -0.29352358 -0.21496919 0.24902643 -0.08597275
000250 d9 33 72 bd c4 2f 8f be ed c0 58 be 2d b4 6f be
       -0.059131477 -0.2796613 -0.21167345 -0.23408575
000260 84 6d 66 bd e7 d3 8a 3d 06 48 60 3e d5 f3 88 be
       -0.056256786 0.067786984 0.21902475 -0.2674853
000270 73 00 6b 3e 92 71 24 be e8 2a 70 bd 78 b9 c6 bd
       0.2294939 -0.16058949 -0.05863467 -0.09703344
000280 e4 d0 5a bd 24 4d 5d bd 64 aa 85 be b0 4b a1 be
       -0.05342187 -0.054028645 -0.2610656 -0.31503057
000290 c8 c3 31 bd 80 0f 6b 3b 5c 04 01 be 4a b9 c1 3d
       -0.043399602 0.0035867393 -0.12599319 0.09459169
0002a0 58 9f 7f be 9e 34 5a 3b 89 2f 81 3e b6 2d 73 bd
       -0.24963129 0.0033295522 0.2523158 -0.059369765
0002b0 0d 90 90 3e 01 07 ae 3d 70 5d 88 be ee b3 30 3e
       0.28234902 0.0849743 -0.26633787 0.17256138
0002c0 f4 97 7c 3c 9c 90 fd bd 79 43 83 3e 1a 81 65 be
       0.015417088 -0.12381098 0.25637415 -0.2241253
0002d0 94 41 0e 3d e2 ae 76 bd da 09 59 3e c2 f2 68 3d
       0.03473051 -0.060225375 0.21195164 0.056872137
0002e0 17 9a ce 3d da 53 bc 3d c2 fc ce bd 84 34 33 bd
       0.10087984 0.09195681 -0.101068035 -0.043751255
0002f0 8a 43 87 be 52 78 b3 3d 85 c0 34 3e 0c dd 54 3e
       -0.26418716 0.08763184 0.17651565 0.20787448
000300 00 55 48 be ee d9 87 3d 08 fa 1d be 0d 58 fb bd
       -0.19563675 0.06633364 -0.1542741 -0.12272654
000310 a8 60 0a be e4 ca 6f 3d 7e aa 2b be 45 d9 fa 3c
       -0.13513434 0.0585431 -0.16764256 0.03062118
000320 1d 37 d7 3c 7d af 52 3e 42 5e 92 be 19 fe 4e be
       0.026271397 0.20574756 -0.28587538 -0.20214118
000330 82 de 59 be dc 16 50 3e bc 08 ab bd c3 3d 5e 3e
       -0.21276286 0.2032122 -0.08351275 0.21703248
000340 d4 65 cd 3d b8 d9 0f 3d 80 4e 07 bb 44 92 60 bd
       0.10029188 0.035119742 -0.0020646155 -0.05482699
000350 78 88 0e 3d e8 b3 81 bd 00 6e ff ba f0 f2 10 3d
       0.034798115 -0.063331425 -0.0019487739 0.035387933
000360 be 26 5e be 53 db 14 be 4a 55 65 3e 0a 7c 66 be
       -0.21694466 -0.1453679 0.22395816 -0.22508255
000370 c0 25 a3 bc f5 3e ac 3e d3 2b 23 3e 2f c0 8e 3d
       -0.019915462 0.33641782 0.15934686 0.0697025
000380 e5 c4 47 be 8d 81 34 3e de 3b 38 be 02 b0 e6 bb
       -0.19508703 0.17627545 -0.17991588 -0.0070400247
000390 15 d9 82 bd 2c 3b 28 bd 80 d1 46 3b 28 c9 14 3e
       -0.06389061 -0.041072056 0.0030337274 0.1452986
0003a0 51 ac 71 3d 33 31 9f 3e ce 09 b8 3d 7d 58 79 be
       0.059002224 0.31092224 0.08986245 -0.24350162
0003b0 05 b7 1c 3e 16 d8 51 be 4f 2a fb bd 1d 52 76 3d
       0.15304191 -0.20492586 -0.12263929 0.060136903
0003c0 0d 38 92 3d 39 bc 8a 3e fe d8 22 be 9b e1 bc 3c
       0.07139597 0.27096727 -0.15903088 0.023056796
0003d0 af 9c 1b 3e 55 da a7 be 0f 4d 4b 3e 2a 1a 94 be
       0.15196489 -0.32783762 0.19853614 -0.28926212
0003e0 48 b6 18 bd ba e9 c2 bd 68 17 10 be a3 16 9e 3d
       -0.037283212 -0.09517236 -0.14071429 0.07719161
0003f0 ea 58 7c 3e cd a2 46 bd 2c c2 1d be a7 e1 a1 bd
       0.24643293 -0.048495103 -0.15406102 -0.07904368

hidden_layers.linear_0.bias f4 [100]
000000 d3 13 17 bd 6f 0a 8a 3c 85 16 37 3e 8e 48 63 3e
       -0.03688414 0.016850678 0.17879684 0.22195646
000010 a0 5b 57 3e 5d bb 03 3e 5c 9b d7 bd 95 d2 4a be
       0.21031046 0.12864442 -0.10527679 -0.19806893
000020 6b 13 7e be 1f 0f 4f 3d d2 43 86 3e 88 8a bc 3a
       -0.24812095 0.05055153 0.26223618 0.0014384547
000030 b7 a2 b0 bc f3 17 56 be 52 86 c3 3d 21 9b 44 3e
       -0.021561963 -0.20907573 0.09547104 0.19199802
000040 d6 00 8c be b2 63 0c be 04 a6 3a 3e b4 dc c1 3d
       -0.27344388 -0.13709906 0.18227392 0.09465924
000050 da 47 6e bb d9 eb 88 3d 76 29 28 bd b6 82 46 be
       -0.0036358745 0.06685609 -0.041055165 -0.193858
000060 ef ee 82 be e8 52 43 3e 57 14 b9 bc e7 51 ee bd
       -0.25572917 0.19074595 -0.022592707 -0.116367154
000070 4e 02 8f bd 27 59 2e be 17 ee 30 bd eb 0f 71 be
       -0.069828615 -0.17026196 -0.04319581 -0.23541228
000080 3b 2e 5c 3e b3 db 10 3e 92 3a 03 be d0 de c1 bd
       0.2150201 0.14146309 -0.12815312 -0.09466326
000090 70 2d ff 3d 94 e3 e2 bd 0e da 90 3d 1c 59 b1 3d
       0.124598384 -0.11078563 0.07072841 0.086595744
0000a0 f3 a0 2c be 43 20 6d 3d 3c 43 3d 3a cb ae 7c 3e
       -0.16858272 0.057892095 0.00072197965 0.24676053
0000b0 4e 09 dc bd 4b 46 a0 bd 5c e3 8e 3e 36 97 5a be
       -0.10743962 -0.07825907 0.27907836 -0.21346745
0000c0 3a 2e 08 3d f3 2e 85 3e b7 ba f6 bd 46 6a 86 3e
       0.03324721 0.26012382 -0.12047332 0.26252955
0000d0 45 96 6d 3e 1a 60 6b 3e 50 e8 92 3c be f1 6d 3e
       0.23201855 0.22985879 0.01793304 0.23236749
0000e0 e6 14 c6 bd 61 3a e9 bd 8b 00 e7 3d c3 5a ae 3d
       -0.09671955 -0.11388088 0.112794004 0.08513405
0000f0 d9 04 22 3e df 09 87 3e 77 32 35 be 29 f8 17 3e
       0.15822162 0.2637472 -0.17695032 0.1484076
000100 f3 15 d6 3d bd c1 d6 3d 88 71 f2 3d b8 c9 ef bd
       0.10453405 0.104861714 0.118380606 -0.11708397
000110 79 f5 4d be d2 77 61 3e 29 f9 fd bd 13 df 36 3e
       -0.20113172 0.22018364 -0.12401039 0.17858534
000120 4a 47 87 be f6 0f e3 bc ea fe 13 3d 30 8f 44 3d
       -0.26421577 -0.027717572 0.036131777 0.047988117
000130 f7 a8 0e 3c b9 16 07 3e 35 30 e4 bc 33 d1 80 3d
       0.008707277 0.13192262 -0.027855018 0.062899016
000140 d7 5e 8c 3e b2 76 5c be 8e dd e9 bc 5b 8c 00 be
       0.27416107 -0.21529654 -0.028548028 -0.12553541
000150 f3 91 8e 3e 62 03 8f 3e 00 d4 f7 bb de 54 b3 bd
       0.27845725 0.27932268 -0.007563114 -0.087564215
000160 5e 7a 2f be 03 50 44 3e b6 fa 7c bb 46 71 80 3e
       -0.17136523 0.19171147 -0.0038601584 0.2508642
000170 ad 10 1d 3e 7f 0d 8f 3e 68 30 6f 3e 50 86 24 be
       0.15338393 0.27939984 0.2335831 -0.16066861
000180 c1 c7 90 3d ea 7a 1a be e3 40 fc 3d 49 cf 13 bc
       0.0706935 -0.1508595 0.12317064 -0.009021589

hidden_layers.linear_1.weight f4 [100, 100]
000000 4c 2a c2 bc 95 7d 23 3d 95 37 01 be a8 b0 88 3c
       -0.02370181 0.039914686 -0.12618859 0.016685799
000010 95 da 30 3a e1 70 56 3d 28 6f 89 3d da 09 2b bd
       0.00067464384 0.052353743 0.067106545 -0.041757442
000020 72 66 11 3d 18 6b ca bd 3f 22 d1 3c 17 51 1e bd
       0.03549809 -0.09883708 0.025529025 -0.038651552
000030 87 01 a2 3d bf 2e f6 3d ab 41 e3 3d 88 ce 86 3c
       0.079104476 0.12020635 0.110965095 0.016455904
000040 ce 89 71 3d e2 fb 5b be b9 a1 46 bd 77 59 06 be
       0.05896931 -0.21482804 -0.048494074 -0.13120066
000050 a4 bd 44 3d 57 88 9a bd 11 0f 90 bd 2d 4e 3f bd
       0.048032418 -0.07545536 -0.07034124 -0.046705414
000060 7f 30 82 bd 8c 7b 1a 3c b2 bc 8f 3d 48 1a ef 3c
       -0.06356906 0.00942887 0.07018413 0.029187337
000070 7d aa 6c bd d0 55 a0 bd c2 6a 23 be 3f 34 a3 bd
       -0.057779778 -0.078288674 -0.15958694 -0.079689495
000080 d5 31 be 3d 0d 79 1d 3c cf 5f 3f be f7 80 5a bd
       0.092868485 0.00961138 -0.18688892 -0.053345647
000090 6a 8f 21 3d bc 0c 13 bd 7b 6a 1c be 8f 37 f8 3d
       0.03944341 -0.035900816 -0.15274994 0.12119972
0000a0 45 e0 1b bd e7 b2 12 3e e8 7b 83 bc b5 ae b1 bd
       -0.038055677 0.14326058 -0.016050294 -0.08675901
0000b0 a9 96 b8 3d f7 9e 8e 3d 18 b4 17 be 3d db 6a 3c
       0.09013111 0.06963914 -0.14814794 0.014334497
0000c0 69 4f 20 3d 2e e5 18 bd cd b8 d4 3d 4a 7b cd 3d
       0.03913823 -0.037327938 0.103868105 0.10033281
0000d0 91 f7 b1 3d f0 66 a9 bc d0 9d 92 3d d9 2b 7a bd
       0.08689798 -0.020678967 0.071590066 -0.061076973
0000e0 e4 5f 40 3a 1e 4b 2f 3b 2a 39 8e bc 15 33 77 3d
       0.00073385076 0.0026747654 -0.017361242 0.06035145
0000f0 7d 40 05 bd ab 41 4e bd 34 f4 a2 bc e0 96 c8 bd
       -0.032532204 -0.050355595 -0.019891836 -0.09794402
000100 30 94 3c bd 66 33 65 bd 06 26 a1 3d 0f e5 99 3d
       -0.04603976 -0.05595722 0.078685805 0.075143926
000110 c0 62 c9 3d 01 7c 5a bc c0 19 6f bd b4 7a 90 3c
       0.09833288 -0.013335229 -0.058374166 0.017636634
000120 67 6f cc 3d 2a b3 68 3d c4 3f 8f bd cf 43 ae bd
       0.09982186 0.05681149 -0.06994584 -0.08509027
000130 45 51 8d bd af 22 8f bd 3e d7 d5 3d ef e3 6d 3d
       -0.069002666 -0.06989037 0.10441445 0.058078703
000140 aa b0 ce 3d 5e 23 98 3d 4f 76 ca 3c 37 cf 75 bd
       0.1009229 0.07428621 0.024714617 -0.06001207
000150 44 2d b0 3d 00 b3 03 bd 5e 55 31 3d 8a f1 c1 bd
       0.08602384 -0.03215313 0.043294303 -0.09469898
000160 53 56 a1 3d 04 97 9a 3a a1 d5 03 bd bd 71 a9 bc
       0.07877793 0.0011794274 -0.032186154 -0.020684117
000170 68 27 75 3d cd 5a 10 bc 5b 18 50 bd 2c 5f 2f 3e
       0.059852034 -0.008810711 -0.050804477 0.17126149
000180 ad 37 01 ba fd 66 c8 bd 52 d4 0e 3e bc 0a bd 3b
       -0.0004929256 -0.097852685 0.13948181 0.005769102
000190 0f 69 42 3e 50 97 34 be 2e af 4e 3d f7 95 78 bd
       0.18985389 -0.17635846 0.050460033 -0.060689893
0001a0 cb 65 46 bd b8 4b 94 bc 8c 39 e2 bc ca 71 60 3d
       -0.04843692 -0.018102512 -0.027615331 0.054796018
0001b0 b4 a5 9b bc ce b0 13 3e fa 67 06 3d 3c a2 8f bd
       -0.018999912 0.14422914 0.032814004 -0.070133656
0001c0 8e b0 16 be 82 e1 d9 bd ec ff e5 bd de 64 ad bd
       -0.14715788 -0.10638715 -0.11230454 -0.084665045
0001d0 14 c6 97 bc 4d 73 fd 3b 80 24 b6 bc e2 3c 47 3d
       -0.018527068 0.007734692 -0.022234201 0.048642047
0001e0 09 dd 1c 3d d7 50 83 3d 48 3f fb bc da d5 21 bd
       0.038296733 0.06411903 -0.030669823 -0.039510585
0001f0 7d 5b 6a 3c 94 ee 5d 3d 00 7a f5 bd 27 cd c8 bc
       0.014304039 0.054182604 -0.1198616 -0.024511887
000200 8f 8f 18 bd 8e 7c 6d bd ad 33 0f 3e 67 e4 a6 3b
       -0.037246283 -0.057980113 0.13984556 0.0050931456
000210 de 3d a1 3d 33 32 08 3b 14 2a 0b 3c 9d eb 6e bd
       0.07873128 0.0020781874 0.008493919 -0.058330167
000220 e0 73 9b bc 55 7e e3 3c 2d bd 1d 3d 1d 15 2d 3b
       -0.018976152 0.0277702 0.03851049 0.002641029
000230 cc a7 80 3c a8 c5 4f be 86 34 41 3d c5 c1 e8 3d
       0.015705012 -0.20290244 0.04716923 0.113650836
000240 4b de 09 be 93 5c 64 3d 7f d5 f2 3c 31 82 56 bd
       -0.13463704 0.05575235 0.029642818 -0.052370254
000250 a4 7a d7 bd 5d f0 6b bc d2 79 fc bd 05 05 eb 3c
       -0.10521439 -0.014400569 -0.12327923 0.028688917
000260 f2 55 b0 3d 28 15 f7 3c 28 ed cb bc ea 83 0d 3d
       0.08610143 0.030161455 -0.024893358 0.03454963
000270 68 6c 6b bd 34 dc c3 bd 71 1e af bd a1 54 8c bd
       -0.05747643 -0.09563485 -0.08550728 -0.06852079
000280 2d 58 04 3d be 59 88 3c 19 f8 10 be bb 7f be bd
       0.032310653 0.016644355 -0.14157142 -0.093017064
000290 6e 5a a9 3d 8f bc 48 bd 65 62 94 bc 72 e7 c6 bd
       0.08269201 -0.04900795 -0.018113324 -0.097121134
0002a0 6f 5d eb bd 55 ca 2b 3d ed e4 37 be ae e1 63 bd
       -0.114924304 0.041941006 -0.17958422 -0.055635147
0002b0 75 8b 99 3d 60 75 06 bd d7 5f 7c bb 88 02 e6 bc
       0.074973024 -0.03282678 -0.0038509273 -0.028077379
0002c0 21 70 26 3d 0d 26 43 bc a8 b1 98 39 c6 df 8e 3c
       0.04063428 -0.0119109275 0.00029124063 0.017440688
0002d0 84 05 42 3a 54 e7 0f bd 3a 44 ac bd 7f 8e 1b 3d
       0.00074013346 -0.03513272 -0.08411451 0.03797769
0002e0 24 b6 ac 3d d5 7c 4d 3d d2 57 a9 bd 42 3f 95 bc
       0.08433178 0.050167877 -0.082687035 -0.01821864
0002f0 f9 a3 85 3d a1 84 db bc a6 96 a7 3d 6c ee b9 3d
       0.06525416 -0.02679664 0.08183031 0.090786785
000300 91 22 cb bc 9e 70 e4 bd 97 b9 d5 3d 80 c3 db bd
       -0.024796756 -0.111542925 0.10435789 -0.10730648
000310 ed 8f 9d bd 50 d2 12 bc 74 dc d6 3c be b8 27 3d
       -0.07693467 -0.008961275 0.026228167 0.04094767
000320 5a 86 e2 bd 90 63 38 3e 3b e2 65 3d 7d a2 78 3c
       -0.11060782 0.1800673 0.056123953 0.015175459
000330 88 e3 35 3c 50 85 bc 3a 7c fc 7e 3c 60 e9 68 3b
       0.011101611 0.0014382992 0.015563127 0.0035539493
000340 00 dd 77 bd 7b a5 36 bd 53 6c d8 3b d9 71 0b 3d
       -0.060513496 -0.04459141 0.00660471 0.03404412
000350 b6 a3 40 3d cd 0c 84 3d 90 e3 ae 3a d2 2e 05 3d
       0.047031127 0.06447754 0.0013342965 0.032515354
000360 a2 f5 5d 3d 20 a9 05 bd 04 d3 4e bd d1 58 c6 bd
       0.05418933 -0.032631993 -0.05049421 -0.09684909
000370 1a 23 1c 3d ad 79 94 bd b9 e0 56 bd 6d 6d bd 3d
       0.038119413 -0.0724977 -0.052460406 0.09249387
000380 e3 d0 08 3e 19 3a ce 3d 43 8b bd 3d 01 81 3e 3d
       0.13360934 0.10069675 0.09255078 0.046509746
000390 56 0b 1c 3e 27 65 c7 3d 55 15 81 bd ca e9 30 bc
       0.152387 0.0973609 -0.06302897 -0.010797927
0003a0 62 53 b5 3d 0b df 07 3b 07 4b 80 bd 3b cd 9e bd
       0.08853795 0.002073231 -0.0626431 -0.07753988
0003b0 24 7d 62 3d 9c 52 c4 3d 84 a8 bb 3d 44 70 7e 3c
       0.055295125 0.09586069 0.09163001 0.015529696
0003c0 ea ae f3 3d a3 d7 8d 3d 04 df a2 bd 09 bd d7 bd
       0.118985966 0.06925895 -0.07952693 -0.105341025
0003d0 61 56 3e 3e 7e 81 16 3d 3f c3 5a bd 28 64 a3 3c
       0.18587638 0.036744587 -0.053408857 0.01994522
0003e0 e7 f3 81 3a e0 41 b8 ba 88 4b e7 3d 5e e7 ae 3c
       0.0009914608 -0.0014057718 0.11293703 0.021350559
0003f0 1e 8b 4d bd 14 e1 3e bd 01 09 a2 3d 98 26 a6 3d
       -0.0501815 -0.04660137 0.079118736 0.0811283

hidden_layers.linear_1.bias f4 [100]
000000 e9 6d f2 3c ae 25 ce 3d 99 7c 9a bd a5 de c3 bc
       0.029593425 0.100657806 -0.07543296 -0.023909876
000010 92 ce 3b bd b0 a4 ac 3c f3 78 58 bd 16 bd c9 3d
       -0.045851298 0.021074623 -0.05284972 0.098505184
000020 b9 77 82 3d 23 70 d6 bb 42 5e b1 bd 73 f5 59 bd
       0.063704915 -0.0065441295 -0.086605564 -0.053212594
000030 aa 25 7e bc cf b4 02 3d 7a f4 7a bc c2 ae a3 bd
       -0.0155119095 0.031910714 -0.015317077 -0.07992317
000040 1e e7 cc bc a1 a8 ac bd c5 df 3a 3d f4 8d a5 bd
       -0.025012549 -0.08430601 0.04562356 -0.08083716
000050 a8 5d 8b bc 7e 89 ab bd ba 4c 27 bd 38 0c 5d bb
       -0.017012432 -0.08375834 -0.040844657 -0.0033729207
000060 a7 e4 6d bd 42 7d 9b bd b4 73 0f 3d 93 f1 4f bd
       -0.058079388 -0.075922504 0.035022452 -0.050767493
000070 9b 70 45 3c c0 3e 19 3d 1e 9b d3 bb 8b fc b2 bd
       0.012050773 0.03741336 -0.0064577004 -0.08739575
000080 c8 7c aa bc 67 30 8c bc 0c 27 2c 3d e6 39 a5 bd
       -0.020811453 -0.017112924 0.042029426 -0.08067684
000090 36 cd 8f 3d b7 d6 60 3c 93 45 09 3d 44 4a 81 3c
       0.07021563 0.013723067 0.033513617 0.015782483
0000a0 ba 01 f7 bb af 54 31 3d 9b 30 85 3d cd 86 8c bc
       -0.0075380476 0.04329365 0.065034114 -0.017154122
0000b0 bd d7 09 3d 63 47 91 3d 28 88 00 3d 00 22 f9 39
       0.03365301 0.07093694 0.03137985 0.00047518313
0000c0 b6 16 e0 3c fb 9f 1c 3c 03 db ae 3d b8 e5 df bc
       0.02735458 0.009559627 0.08537867 -0.027331218
0000d0 6c a7 f7 3b 94 eb 07 3c 03 33 b7 bd 53 45 a5 3c
       0.0075578 0.008295912 -0.089452766 0.020174658
0000e0 e3 16 46 bd 89 cd 12 3d da 1a 01 bd ea 4b 8e 3c
       -0.04836167 0.035840545 -0.03151975 0.017370183
0000f0 19 aa ab bd 2e 9f 6b 3d 6e 93 a5 3d 33 4a 20 3d
       -0.08382053 0.057524852 0.080847606 0.039133262
000100 56 a3 23 3d 90 a3 8e bd f6 1d e8 3d 88 8d 8d 3c
       0.03995069 -0.06964791 0.113338396 0.017279401
000110 5d f5 c0 bd d9 c2 38 bc d1 4f 0f bb e4 d4 95 3c
       -0.09421799 -0.011276924 -0.0021867643 0.01828999
000120 72 41 1c 3c f7 02 c5 3d d9 f7 89 bc f5 c5 67 bc
       0.009537088 0.09619706 -0.016841816 -0.014146318
000130 ec 01 74 bc d3 8b 9f 3d fb 92 bd bd a0 c9 ad 3d
       -0.014893036 0.07790341 -0.0925655 0.084857225
000140 12 b9 33 bd ad 5b 99 3d 2f 09 5b bd ce 50 f3 bc
       -0.04387767 0.07488189 -0.053475555 -0.029701617
000150 a0 ec 70 3b 5a 79 3b bb dc 54 82 bd dc 6a a5 bd
       0.0036762133 -0.0028606267 -0.06363842 -0.080770224
000160 ca 58 aa bd c7 a9 d1 3d d5 1d 73 3d a6 8f df bc
       -0.083177164 0.102374606 0.059354622 -0.027290177
000170 83 9c 4b 3d 7a 5f 2d 3c c7 01 d2 b9 67 62 4d bd
       0.049709808 0.010581845 -0.00040055646 -0.050142672
000180 6c 82 5a bd b9 9c 8e 3d c0 3a db 3d 89 87 d5 bd
       -0.053347036 0.06963486 0.10704565 -0.10426242

hidden_layers.linear_2.weight f4 [62, 100]
000000 ca 29 79 bd 15 0e 8e 3d c8 0b bb bd 99 82 46 bd
       -0.06083087 0.0693628 -0.091331065 -0.04846439
000010 b1 7c 20 bd 1a aa d0 3d 98 1a 8a bc 5f b1 d0 3d
       -0.039181415 0.10188694 -0.016858384 0.10190081
000020 33 9e 13 ba 7b db c4 3d 3a 20 85 bd 4d ef 52 bd
       -0.00056311785 0.09612175 -0.06500287 -0.051497746
000030 aa 6a c2 bc 9d c8 0c 3d 50 1a f4 3d c9 42 2f bd
       -0.023732502 0.034371007 0.11919081 -0.0427883
000040 7c be 56 3b 94 a2 2c be fe af 22 3e fa 24 e5 bd
       0.0032767346 -0.16858894 0.15887448 -0.11188693
000050 6c d9 09 bd b8 99 a9 bd fa 9a e4 3c 9e b4 36 be
       -0.033654615 -0.08281273 0.02790593 -0.17842337
000060 95 07 2e bd 85 c7 d8 bd 79 90 26 3e 3e d8 94 bd
       -0.0424877 -0.1058493 0.1626605 -0.072678074
000070 91 b5 2c be 73 b9 62 bc 64 25 d0 3d 4e e5 40 3d
       -0.16866137 -0.01383816 0.10163382 0.047093682
000080 77 81 ff bd a2 2b 08 bd 27 83 e7 3d 84 17 fb 3c
       -0.12475865 -0.033244736 0.11304312 0.030650862
000090 33 69 0f 3e 3d 42 f4 bc ce c1 e0 3d 55 7f c4 3d
       0.14004974 -0.029816741 0.10974465 0.09594599
0000a0 25 8a 64 bd 04 54 97 bd 70 c5 69 bd f2 ea ba 3d
       -0.055795807 -0.073890716 -0.057073057 0.091268435
0000b0 5f 5b 6c 3c 9e 4c 82 3d ae 7e f8 bd 01 71 96 3d
       0.014426081 0.0636227 -0.12133537 0.073457725
0000c0 e1 b4 cd bd 61 86 60 bd 80 1c 1c 3e 77 cf 9b bb
       -0.100442655 -0.054815654 0.15245247 -0.0047549563
0000d0 94 6c fd 3c 56 28 0a 3c e7 c1 be 3d a6 8c 82 bd
       0.030935563 0.008432468 0.09314328 -0.06374483
0000e0 61 5b 24 3c cb 00 37 3b ff 88 8c 3c fd f5 48 bc
       0.010031552 0.0027924057 0.017155169 -0.012265679
0000f0 db 6d a7 bd 6b 6f 88 3d db ea 12 3d 27 f4 ea bd
       -0.0817525 0.06661876 0.035868507 -0.114723496
000100 44 21 d8 3c 11 84 d1 3c 88 56 85 3d b8 80 d9 bd
       0.02638305 0.02557567 0.06510645 -0.10620254
000110 05 37 a4 3d 95 54 85 bd b9 69 ad bc ec 31 df bc
       0.08018307 -0.06510273 -0.021168577 -0.027245484
000120 66 bc b2 3b 7a 8f f9 3d e7 3c 93 bd f5 e7 30 bd
       0.0054545878 0.12185569 -0.071893506 -0.04318996
000130 f1 e5 b3 bc 0f 64 c2 3c dd 88 6a 3d a5 90 b0 3d
       -0.02196023 0.023729352 0.05725943 0.08621339
000140 c1 ba 10 bd 59 27 d5 3d f0 76 6a bd 3a 72 dd 3c
       -0.035334352 0.104078956 -0.057242334 0.027032007
000150 47 b6 5e bd 75 39 0b be 38 16 c7 bc 65 c5 fc bc
       -0.054373052 -0.13596137 -0.024302587 -0.030855844
000160 cc 7d 98 bc 33 af 01 3e 62 6a 95 bc 8d 29 67 bd
       -0.018614672 0.1266449 -0.018239204 -0.05643611
000170 33 d6 68 3d b1 e6 71 3d 46 6a 37 3e c8 19 84 3d
       0.0568449 0.059057895 0.17911634 0.0645023
000180 69 3d 77 bd 29 b2 c0 bd b6 d7 da 3d 54 26 26 bd
       -0.0603613 -0.09408981 0.10685675 -0.040563896
000190 42 42 b0 3c 53 4d 4d bd d0 aa b9 bd 7d 24 93 3d
       0.02151597 -0.05012257 -0.09065783 0.07184694
0001a0 91 11 03 3e d4 f7 80 bc 63 14 a6 bd a0 89 00 bd
       0.1279967 -0.015743174 -0.08109357 -0.03138125
0001b0 52 dc 67 bd a9 11 f1 3d 3a 85 4b bd d0 2a f7 bb
       -0.0566066 0.117709465 -0.0496876 -0.0075429454
0001c0 ba 88 be bd 2a 53 12 be 5b b1 06 3d 47 a4 e1 3c
       -0.09303422 -0.14289537 0.032883983 0.027544154
0001d0 74 2c 5f 3d f1 99 b2 bd 19 56 38 3e 9d 39 01 be
       0.054485753 -0.08720768 0.18001594 -0.12619634
0001e0 d8 69 d3 bc a2 cd b2 bd 49 f0 b8 3d f0 5c ef bd
       -0.025807306 -0.087306276 0.09030206 -0.11687648
0001f0 70 bc 41 bd 81 34 c4 bd e7 ba b4 3c f1 68 b4 3d
       -0.04729885 -0.09580327 0.022061778 0.088090785
000200 3c 09 2a bd 8d 24 80 3d f5 55 a8 3c 3c 8f e6 3c
       -0.041512713 0.062569715 0.0205488 0.028144471
000210 85 f9 d1 bd ba 17 b6 3d 5c 72 53 3d 80 8b a0 3b
       -0.1025267 0.08891244 0.051622733 0.004899442
000220 64 ea e6 3d 81 c0 a9 bd d3 c9 36 3e 3a 4c a5 bc
       0.11275175 -0.0828867 0.17850427 -0.02017795
000230 87 59 05 be a8 8d 90 bc c4 46 98 bd 3e 26 de 3d
       -0.13022433 -0.017645672 -0.074353725 0.10847138
000240 d9 ee 73 bc ee 8d 7e 3c 43 36 c9 bd 2a 5a 4d bd
       -0.014888489 0.015536768 -0.09824803 -0.050134815
000250 8b ae 36 be 35 a9 1f bd 4f a3 81 3d 70 a6 1c be
       -0.1784002 -0.038979728 0.06329977 -0.15297866
000260 fe 4a 9e 3c 0c cb 40 bd 8a 1a 9b 3d 4d 6b 20 be
       0.019322868 -0.04706864 0.07573421 -0.15665932
000270 c0 33 f1 3d 7e 8c 43 bd 20 0a 75 bc a2 24 75 bd
       0.11777449 -0.047741406 -0.014956027 -0.05984939
000280 b3 09 d2 bb d4 68 e2 3d a4 d0 e7 3c 57 c5 ab bd
       -0.0064098476 0.11055151 0.02829773 -0.08387249
000290 b5 76 bf b9 33 21 e8 bd 01 1c a1 3d 3b 4a cf bd
       -0.00036518803 -0.11334457 0.078666694 -0.1012158
0002a0 8d df 9c 3d 7d 7a a9 3d da 4e 13 bd fb c7 7d bd
       0.076598264 0.08275316 -0.03596387 -0.061958294
0002b0 a2 18 6a bd 79 26 23 3e ed de f5 3a 22 30 a2 bc
       -0.057152398 0.15932645 0.0018758454 -0.019798342
0002c0 2a 97 be bd 61 b7 b1 3d 46 45 25 3d f1 a1 17 3e
       -0.09306176 0.08677555 0.040349267 0.1480787
0002d0 96 2b 46 bc e7 71 f7 3d da 0c 20 be 89 bb 95 3c
       -0.012095353 0.12082272 -0.15629902 0.0182779
0002e0 8b 3e c3 3d 32 56 17 be 50 90 0f bd 07 f3 71 ba
       0.095334135 -0.14778975 -0.035049736 -0.00092296343
0002f0 99 16 a8 3d 19 71 3f 3d f8 2e c9 3c 02 ec 11 be
       0.08207435 0.046738718 0.02455853 -0.14250186
000300 98 91 e6 3c 86 24 50 3d 76 e6 6c 3d 5f 2c 4d bd
       0.028145596 0.05081608 0.057836972 -0.050091144
000310 bd b7 c3 3b a2 07 99 bb 97 bd 68 bd 68 75 bf 3c
       0.005972831 -0.0046700994 -0.056821432 0.023371413
000320 cd 67 19 be 42 d5 12 3e 17 c7 d8 bd fc 21 b2 3d
       -0.14981003 0.14339164 -0.105848484 0.08697888
000330 df 1f 93 3c 51 65 07 3e 31 90 f6 bd 8a 9a 8e 3c
       0.017959533 0.13222243 -0.12039221 0.017407674
000340 4e 29 f5 ba c4 65 ea 3d 82 67 5a 3d 03 c8 b6 3d
       -0.0018704326 0.114451915 0.05332137 0.08924868
000350 fd 01 57 bd 7c fb 6e bc 39 47 41 3e 46 b0 5f bd
       -0.05249213 -0.014586326 0.18874826 -0.054611467
000360 a5 70 1e bd 31 51 c1 bc c5 1d 97 3d 51 bd b8 bc
       -0.038681645 -0.023598285 0.07378725 -0.02255121
000370 72 77 31 3d f0 28 7b bc b6 e6 f3 bc 71 46 34 bd
       0.043326803 -0.0153295845 -0.029773097 -0.04401249
000380 b2 a4 33 bc 3f ba 11 be f3 af 8e 3c 98 6d 86 bc
       -0.010964559 -0.14231203 0.017417884 -0.01640968
000390 9b 10 15 be 83 07 24 3e 3a 2d b4 3d f1 26 85 3d
       -0.14557116 0.1601849 0.08797689 0.06501568
0003a0 f8 66 df 3c b3 52 88 3d 97 84 f4 3d 00 aa 6a 3b
       0.027270779 0.066563986 0.11939352 0.0035806894
0003b0 5e 1d 0b 3e e5 3a 95 3c 42 4e 2f 3e 4f ae ec bc
       0.13585421 0.01821656 0.17119697 -0.02889171
0003c0 5c be 0c bc 50 f6 95 bd 7a bc 05 bd 1f c7 1c bd
       -0.008590307 -0.07322371 -0.03265045 -0.038275834
0003d0 09 6f 92 bc 3c 62 c0 3d 71 52 0c bd db b0 cb 3d
       -0.017875211 0.09393737 -0.03425831 0.09945842
0003e0 e5 2e 30 be fa 3a 07 be 11 45 8c 3d 96 35 00 be
       -0.17205389 -0.13206092 0.06849111 -0.12520441
0003f0 8c d2 88 bd eb 4a af bd 13 27 30 3e 25 70 0a be
       -0.06680784 -0.08559211 0.17202406 -0.13519342

hidden_layers.linear_2.bias f4 [62]
000000 39 a9 93 bc f2 2b c4 3d 08 51 5e bd d7 36 8f bd
       -0.018025028 0.095786944 -0.054276496 -0.06992882
000010 92 4e 8d 3d 8e e5 8d 3d fe bb 32 bd 1d 0c 3f 3c
       0.06899752 0.0692855 -0.043636315 0.011660603
000020 19 97 a5 3b 5d c9 d4 3c d3 81 b6 bc 8a dd bb bd
       0.0050534126 0.025974924 -0.022278702 -0.091731146
000030 11 d9 e4 3c e3 e5 d1 bd 46 34 98 bd 86 ee 95 bd
       0.027935537 -0.102489255 -0.07431845 -0.07320885
000040 84 e4 2c 3d 53 ed 18 3d f1 38 61 bd 06 4a bc 3d
       0.042210117 0.037335705 -0.054985944 0.09193806
000050 03 22 85 bd 76 4c 88 3d 5a 77 16 3d 3f bb 8e bc
       -0.06500628 0.06655209 0.036734916 -0.01742327
000060 92 c4 94 3d 9a 8d 9f 3d dc de 98 3d 55 af a0 bd
       0.07264055 0.0779068 0.07464382 -0.07845942
000070 02 ec 02 bd 0e 64 9f bd 42 3d ad 3d 35 fa 85 3c
       -0.031963356 -0.07782756 0.084589496 0.01635466
000080 e1 94 3b bd 93 91 06 bc 07 f3 6e 3d c0 ec b1 3d
       -0.04579628 -0.008213419 0.058337238 0.086877346
000090 06 24 9d bb 2e f7 c4 bd d3 e8 27 bd 77 ef 7d 3d
       -0.004795554 -0.09617458 -0.040993523 0.06199595
0000a0 bf d2 11 3c 06 2e 76 3d e6 8f 9b 3d 91 dd 2b bd
       0.008900343 0.060102485 0.07595806 -0.04195935
0000b0 ba a1 81 3d d6 04 99 bc ea 04 1e bd 72 4c 9d bd
       0.06329675 -0.018679064 -0.038578905 -0.076805964
0000c0 ca 41 68 3c 76 68 7a 3c b7 dd 8c 3d e7 2b d0 3d
       0.014175842 0.0152836945 0.06878226 0.10164624
0000d0 ab d9 a9 bd f9 65 bc bc b4 63 15 bd 8c d4 35 3d
       -0.0829347 -0.022997843 -0.036472037 0.044392154
0000e0 1d ed 56 3d cb b3 c2 3d 0c 5d 7e 3d 93 76 7d 3d
       0.052472223 0.09506949 0.062100455 0.06188066
0000f0 49 c3 93 bd af 7e 7d bd
       -0.07214982 -0.061888393

output_layer.weight f4 [1, 62]
000000 e7 1b ec bd 6c 09 9d bd 4f c0 a1 bd 54 b9 b6 3d
       -0.115287594 -0.07667813 -0.07898008 0.08922067
000010 56 4f 9a bd 9a c4 e3 3d 43 0d e2 3d 4b 0f a3 3d
       -0.075346634 0.11121483 0.11037686 0.07961901
000020 6c f6 9b 3d 77 e1 b7 3d 31 c8 be 3c c5 c6 c6 bd
       0.076153606 0.08978551 0.023288818 -0.09705881
000030 cd b2 c8 3d cd 18 bd 3d ff b9 b5 3d e4 f5 d7 bd
       0.097997285 0.09233246 0.088733666 -0.10544947
000040 08 48 00 bd 35 19 b0 3d 78 82 b5 bc 3c 02 b4 bc
       -0.031318694 0.08598558 -0.022156939 -0.021973722
000050 8b 84 a7 bd 19 74 87 3d d7 22 6e 3d be 27 2d bd
       -0.081795774 0.06613941 0.058138695 -0.04227423
000060 0f 54 c3 3d e7 8b b6 bd 7a b9 87 3d 7c 73 a1 bc
       0.09537517 -0.08913403 0.06627174 -0.019708388
000070 c4 9e 83 bd fa 99 ac 3c 8f e0 fd bd a5 4a d5 3d
       -0.064267665 0.021069515 -0.12396347 0.10414628
000080 2d bb 23 bd 60 77 a6 bd 2f 1b 43 3c a0 93 96 3d
       -0.039973427 -0.08128238 0.011908337 0.07352376
000090 7c 1e c3 3d 16 fb ab 3d 50 8b 1e bd a1 f6 e4 3c
       0.09527299 0.083975 -0.038707078 0.027949633
0000a0 e4 90 ee 3d ee 5b 89 3d 2f 03 03 3e 47 50 c2 3c
       0.116487294 0.06706987 0.12794183 0.02371992
0000b0 7d 93 0a be 26 92 16 3d e8 8b 42 bd dd d7 bd 3c
       -0.13532825 0.03676047 -0.047496706 0.02317422
0000c0 03 ab 54 3d 30 3d 94 3d b5 02 9a bd 55 e1 dc bd
       0.051920902 0.07238233 -0.075200476 -0.10785166
0000d0 94 ec f1 3d 76 0f 09 3d 6a 8c 78 3d 4e de 12 3d
       0.11812702 0.03346201 0.060680784 0.035856538
0000e0 19 c8 1b bd 40 8c 08 be b6 38 e8 3d 0f 20 fc 3d
       -0.038032625 -0.13334751 0.11338942 0.12310802
0000f0 90 54 9b bc ee 1b 35 bd
       -0.018961221 -0.04421609
